misc/saved_models/mnist_model_MMVAE.pt (torch_old, 88678 bytes, 8 tensors)

conv1.weight f4 [10, 1, 5, 5]
000000 42 26 9e 3e e2 4e da 3d e8 38 5a 3e 15 f7 c6 3e
       0.30888563 0.10659577 0.2131077 0.38860384
000010 45 32 c3 3e c9 33 d9 bd 48 12 5f bd df 1d eb bd
       0.3812429 -0.1060558 -0.054460794 -0.11480307
000020 fc 64 33 3e 4a e4 71 3d bb 8e 80 be 5c dc 75 bb
       0.17518991 0.059055604 -0.25108895 -0.0037515378
000030 1f 91 d8 bd 26 da b4 bd 50 b5 2e 3e 1a 5f 13 be
       -0.10574555 -0.08830671 0.17061353 -0.14391747
000040 62 4f 25 be 07 48 92 be 6c b7 6b bd bf 1a 1d 3e
       -0.16143563 -0.28570578 -0.05754797 0.15342234
000050 a4 68 73 be 07 79 4d 3d b2 ff a6 3d 0d 1f 27 3d
       -0.23770386 0.05016425 0.08154239 0.040801097
000060 0d 91 bf 3d e2 06 51 be 20 99 62 be 6b 78 01 bf
       0.09353838 -0.20412782 -0.22128725 -0.5057437
000070 4e 02 31 be 94 ce 52 be b7 77 9a 3e 7f 40 d6 3c
       -0.17286035 -0.20586616 0.3016946 0.026153801
000080 53 81 e7 3d 30 39 48 bd 99 8e 26 be 0d 04 af 3e
       0.113039635 -0.048882663 -0.16265334 0.34182778
000090 a5 db aa 3e f8 97 0d 3e 0d 98 c9 3d c4 40 c8 3e
       0.333707 0.13827503 0.098434545 0.39111912
0000a0 64 77 9f be b2 02 f2 3d 89 c7 1f 3e 15 5c 04 3e
       -0.31145775 0.1181692 0.1560346 0.12925752
0000b0 19 21 43 3e 8f 1e 85 be 1b f0 56 3d 14 8e 54 be
       0.19055595 -0.25999877 0.052475076 -0.20757324
0000c0 3a f6 99 be e1 a2 01 3e 84 9b ff 3d 1c 8b 3a be
       -0.30070668 0.1265979 0.12480834 -0.18217129
0000d0 6b 62 4b bd 00 70 8c bd f7 94 57 bc 96 6c c6 3d
       -0.049654406 -0.068573 -0.013158075 0.0968868
0000e0 6d ec 72 3e 26 25 2d be 97 32 07 be 1f b0 c0 be
       0.23723002 -0.16908702 -0.13202892 -0.3763437
0000f0 71 51 1e be b9 28 b7 3e e1 57 2e 3e 49 60 46 bd
       -0.15460755 0.35773256 0.1702571 -0.04843167
000100 46 3e c3 be 38 17 68 3d dd 4b b7 3c 03 da 89 3e
       -0.38133448 0.056662768 0.022375042 0.26924142
000110 ae 71 1c bd be ae e5 3c c8 69 5a 3c 6c 4a 45 3e
       -0.03819435 0.028037425 0.013330884 0.19266671
000120 76 9c 5d 3d 08 a4 61 3d fd 9f ef 3d 9e 98 01 3d
       0.05410429 0.055088073 0.11700437 0.031639688
000130 39 34 c7 3d 89 00 c2 3d 1a bd e4 3d 75 ea 80 3e
       0.097267576 0.09472758 0.11168881 0.25178877
000140 2a 98 22 be c5 57 bb 3c 9f 0a 1e 3e 83 aa e8 bd
       -0.15878358 0.022869 0.15433739 -0.113606475
000150 e6 81 4e 3e b0 2a 67 be a3 33 90 3e 7b 3b 1a 3d
       0.2016674 -0.22574878 0.28164396 0.03765438
000160 b5 06 62 3d 1c 69 50 be 82 c2 80 be a8 a4 ad 3e
       0.055182178 -0.20352596 -0.25148398 0.33914685
000170 b2 7b b2 3d cd b0 7a 3d 85 ff ec bd 30 57 da 3e
       0.08714999 0.061203767 -0.11572174 0.42644644
000180 58 41 06 3e 86 c9 b6 be 42 3f 46 be 8d 17 58 bf
       0.13110864 -0.35700625 -0.19360068 -0.84410936
000190 00 bd 41 3e c3 c3 a5 bd aa fd 8e 3d da 27 ca 3d
       0.18919754 -0.08093979 0.06981976 0.09870882
0001a0 37 39 e7 3d ec 25 da bd 94 e9 21 3e 71 31 b2 3c
       0.1129021 -0.10651764 0.15811759 0.021752091
0001b0 dc 65 db 3c 28 e3 94 3e 0c fe b3 bd 11 ab 98 3e
       0.026781969 0.29079556 -0.0878869 0.29818013
0001c0 85 79 20 3e b4 40 74 3e ee 69 57 3e 27 1a 6f bf
       0.15671356 0.23852807 0.21036503 -0.9339928
0001d0 55 94 bd be 04 c3 ab 3e 6e 6e 82 3e 90 2d db bd
       -0.3702723 0.33547223 0.25474876 -0.1070205
0001e0 37 72 a3 bd ac 95 82 bf c4 4e c1 bf 12 e8 52 bf
       -0.07980769 -1.0201926 -1.5102162 -0.8238536
0001f0 77 7d 39 bf 19 f8 b3 bd db 48 bb be c4 95 05 bf
       -0.7245707 -0.08787555 -0.36579022 -0.5218165
000200 29 6f 4f 3e 27 30 20 be 52 74 b4 3e 7a be bb be
       0.20257248 -0.15643369 0.35244995 -0.3666876
000210 5b 85 f4 be 95 dc 17 be c8 93 3b 3e 37 1e 63 3d
       -0.47757992 -0.14830239 0.18318093 0.055448737
000220 3f c4 04 3c 03 01 74 bf 12 81 1e 3e d7 f9 f6 3d
       0.008103429 -0.95314044 0.15478924 0.12059372
000230 87 6f f8 3e bd 07 2a bf 6c 71 b1 bd 8b f4 9a bc
       0.4852259 -0.6641806 -0.08664212 -0.018915435
000240 b2 a8 97 3e 1a b4 53 be 0f 61 16 bd 79 57 d3 be
       0.29620892 -0.20674172 -0.036713656 -0.41277674
000250 c2 b3 7c be 97 32 9c 3e f2 bf 1b 3c 1c 17 a6 be
       -0.24677947 0.30507347 0.009506213 -0.32439506
000260 e5 24 ea be a0 d3 85 be 8e da 02 3e 05 78 78 be
       -0.45731273 -0.2613802 0.12778684 -0.24264534
000270 25 cb 87 be 26 67 e0 3d b5 81 72 3e 1e 83 7f 3e
       -0.26522174 0.10957174 0.23682292 0.24952361
000280 7f dd b4 be 58 73 07 3e a6 1f 20 3e cd 0f 34 3e
       -0.35325238 0.13227594 0.15637073 0.17584153
000290 04 2e dd 3d cf 3b 5a be dd af 05 be 0b c7 b7 3d
       0.107997924 -0.21311878 -0.13055368 0.08973511
0002a0 e8 0b 55 3e 1a 7c 26 3d 44 71 d8 bd ba f3 7e 3d
       0.20805323 0.040645696 -0.10568479 0.062244155
0002b0 7f db a0 bd 73 f2 3c 3d a9 2d 0e 3e 10 76 e6 3d
       -0.078543656 0.046129655 0.13884605 0.112529874
0002c0 ca 5a 3c 3e 4f e0 5d 3e a5 5d 82 3e 3a 64 0b bd
       0.18394008 0.21667598 0.2546207 -0.03403113
0002d0 49 0c bc 3d 15 77 d0 bc 56 38 35 be b4 37 23 bf
       0.09182031 -0.025447408 -0.17697272 -0.6375687
0002e0 8c 54 dd be 36 38 e0 bd 18 6f 4c be 32 71 d0 be
       -0.43228567 -0.109482214 -0.19964254 -0.4071136
0002f0 ea e2 39 3e f8 8c d3 3e 29 05 59 be 7a 72 16 3e
       0.18152967 0.41318488 -0.21193375 0.14692107
000300 20 77 42 3e ab a9 23 3e 19 a2 4c 3e bc f4 11 3e
       0.18990755 0.15982692 0.1998371 0.14253515
000310 d2 e6 84 3c 3b 04 c2 3d 1f 71 2b 3d b1 15 09 be
       0.016223345 0.09473463 0.041855928 -0.13387181
000320 77 eb 31 3b f1 5a e7 bb 0d 04 8e be e8 ac 99 3d
       0.0027148405 -0.0070604016 -0.27737466 0.075036824
000330 39 d9 a3 be 95 93 49 3e 18 01 43 be 76 c0 fd bd
       -0.32001665 0.19685204 -0.19043386 -0.12390225
000340 e1 db 43 be 99 98 2b 3e 4d d9 d0 bb 49 a8 47 bd
       -0.19126846 0.1675743 -0.0063735605 -0.048744474
000350 8a 31 db 3e db 9a 8c 3d 63 63 4f 3e 5c 4b 4e 3e
       0.42811233 0.06865474 0.20252757 0.20145935
000360 da db 43 3e 37 c3 15 be e8 e4 20 be df 1c 5e be
       0.19126835 -0.1462525 -0.15712321 -0.21690701
000370 6e 9d 85 3e 8f 6f 00 be 4d 98 ff bd 84 a3 cf 3d
       0.26096672 -0.12542556 -0.12480221 0.1013861
000380 1f 8f 39 3c 30 fc e5 3d 1d ab 86 3e 96 9f c2 bd
       0.011325627 0.112297416 0.26302424 -0.09503095
000390 9f 5b 1e bf 47 f2 60 be e6 af a1 3d 23 7a 45 be
       -0.6185855 -0.21967421 0.07894878 -0.19284873
0003a0 0c 52 27 3f 8a 9f 94 3d 86 a8 0f bf 38 2e 30 be
       0.6535957 0.07256992 -0.5611652 -0.17205131
0003b0 b4 a1 5c be 3c e1 f8 3e c4 d7 a7 3e 52 0b 85 3c
       -0.2154606 0.4860934 0.32781804 0.01624075
0003c0 29 e4 c4 be a5 75 38 be 96 a7 1b 3e 20 c0 d4 3d
       -0.38455322 -0.18013628 0.15200648 0.103882074
0003d0 8f 98 72 3e 1a 62 51 bd c4 7b b5 bb 7e a4 06 be
       0.23691009 -0.051118948 -0.0055384357 -0.13148686
0003e0 31 5b 7d 3d ff 56 4e 3e
       0.061854545 0.20150374

conv1.bias f4 [10]
000000 6e d3 b9 be f4 b5 5f be 45 3b 4f be af 41 f8 be
       -0.3629412 -0.21846753 -0.20237453 -0.48487613
000010 25 aa 11 39 da d0 28 bc 14 2e 22 be b1 85 18 be
       0.00013891661 -0.0103037 -0.1583789 -0.14894749
000020 91 f5 c8 bb 17 d4 e6 be
       -0.0061327894 -0.45083687

conv2.weight f4 [20, 10, 5, 5]
000000 88 a9 0c be 4b 91 f9 3e 09 89 a2 bd ce a0 38 be
       -0.13736546 0.48743662 -0.07936294 -0.18030092
000010 3a 8b d7 be 5e 3e cd 3e 63 87 8a 3d fb de ca bc
       -0.4209841 0.40086645 0.06764104 -0.024764528
000020 f1 69 92 3c 94 c3 5a be 83 c1 10 bf ab c2 ef be
       0.017872782 -0.2136367 -0.56545275 -0.46828207
000030 9e 88 c6 3d b0 ff de bd 24 99 27 bc b8 e0 22 be
       0.096940264 -0.10888612 -0.010229383 -0.15906036
000040 5a e8 12 bf 94 17 25 3d a7 68 da 3d 3d ec b1 bd
       -0.5738579 0.04030569 0.10664492 -0.08687637
000050 73 a6 a2 3d fe 87 c4 3e 71 c7 9a 3e f3 72 62 be
       0.07941904 0.38385004 0.30230287 -0.22114162
000060 66 e8 30 3d 68 77 4c be 6d 38 2b 3e 01 b0 cb 3e
       0.043190382 -0.19967425 0.16720743 0.39782718
000070 bf 21 cd be dc 09 2f be 1e 26 e7 bc 48 95 c3 bd
       -0.4006481 -0.17093605 -0.028216418 -0.095499575
000080 a5 f9 ef be fc 3d 1c be 72 06 2f bf 87 9d 28 be
       -0.4687015 -0.1525802 -0.6836921 -0.16466342
000090 39 53 3d bd ab db 56 bf 66 19 89 3e 56 48 82 bf
       -0.046221945 -0.83928937 0.2677719 -1.0178325
0000a0 22 02 25 be dc 10 3c bf 79 af 83 be a2 0b 17 3d
       -0.16114095 -0.73463225 -0.25719813 0.03687633
0000b0 37 6c 0b 3e 9e d4 ce be 13 dc e7 bd 9f 92 f9 3e
       0.136155 -0.4039659 -0.11321273 0.48744676
0000c0 47 73 4e 3e ac 67 8a 3e d0 aa 86 3e 09 45 c3 3e
       0.20161162 0.2703222 0.26302195 0.38138607
0000d0 8f ea 74 3e f3 71 13 be ba 55 28 3f 23 f4 ac 3e
       0.23917602 -0.14398937 0.6575581 0.33780012
0000e0 fe 0d 1c bd 33 ab fa 3e c2 0a 09 be 4c 23 70 3e
       -0.03809928 0.4895874 -0.1338301 0.23450965
0000f0 50 b8 c0 3d 72 47 57 3e 22 88 e2 3e 0a 75 c4 be
       0.09410155 0.21023348 0.44244486 -0.38370544
000100 5a 2b f4 3e 32 12 aa 3e 28 2f 63 be 61 09 84 3e
       0.47689325 0.33217007 -0.22185957 0.25788406
000110 55 b2 a3 bd 3f ab b6 be 74 85 ec 3d ec 5c 46 be
       -0.079929985 -0.35677525 0.11548892 -0.19371384
000120 61 b5 38 bc 37 94 8b be b2 a3 e3 be b2 50 52 bf
       -0.011273713 -0.27261516 -0.44460827 -0.8215438
000130 c5 5e a1 3e 6d a6 1a 3d fa da 23 be 50 20 9c 3e
       0.31517616 0.037756372 -0.16001502 0.30493402
000140 ee 8b 2e 3e 26 c0 b3 3d f1 5f d8 bb 43 3f 00 be
       0.17045566 0.08776884 -0.006603234 -0.12524132
000150 6a 72 d1 bc 51 8c f4 3e ed 9a 5a be 6b 1b a7 3c
       -0.025567252 0.47763303 -0.21348162 0.020398816
000160 88 f4 d3 be 6c 68 34 3f 90 f4 8d be 52 ac 89 bc
       -0.413975 0.70471835 -0.2772565 -0.016805802
000170 f1 65 17 be 33 72 66 bd 79 f0 7b be c6 9e 41 3e
       -0.14784981 -0.056261253 -0.24603452 0.18908224
000180 25 f8 d2 bd ae 85 2a bd 4f 8d d5 bc 01 dc e9 3e
       -0.10301236 -0.041631393 -0.026068358 0.45675662
000190 bf 80 05 bf a4 79 f7 3e 68 25 ca bf 4e fe a0 bf
       -0.52149576 0.48334992 -1.5792665 -1.2577608
0001a0 d3 27 5e bf 17 31 72 be ef 60 20 c0 70 dc 67 bf
       -0.86779517 -0.23651539 -2.5059164 -0.90570736
0001b0 af 20 31 be 56 0e 05 bf fa 23 1c bf 33 b7 91 3c
       -0.17297624 -0.51975 -0.60992396 0.017787552
0001c0 9c a4 b2 be 9d e0 7b bf a4 a0 0b bf 52 1c af bc
       -0.34891212 -0.9838961 -0.54541993 -0.021375809
0001d0 7e a0 f6 3c 0a d4 16 bd 84 d5 84 be be 4b 19 be
       0.030105826 -0.03682331 -0.2594415 -0.149703
0001e0 b9 9a 2d 3c 8b d5 f0 bd 4f 07 d8 3e 60 c0 e4 3d
       0.010595971 -0.1175948 0.42193076 0.11169505
0001f0 08 cc 1d 3d 36 b1 a7 3e de 2c 04 3e d8 2f 11 3f
       0.038524657 0.3275239 0.1290774 0.5671363
000200 2f d2 db 3e 60 33 12 3f fc 4d 05 3d 95 a4 e8 ba
       0.42933795 0.5710964 0.032545075 -0.0017749245
000210 e8 89 50 3d de c9 17 bd 54 40 0a 3e 1b d2 28 bf
       0.050912768 -0.03705775 0.13501102 -0.65945596
000220 33 b1 86 bd ff 77 09 bf d8 7a 54 be 25 4f 51 3f
       -0.06576767 -0.53698725 -0.20749986 0.8176139
000230 c9 61 ae be 43 ef e5 be c1 ef 15 3e ff ea 20 be
       -0.3405898 -0.44909105 0.1464224 -0.15714644
000240 b1 15 6f be c8 cc 18 3f 8f fa 12 3f d9 ab 12 3c
       -0.23348118 0.5968747 0.5741357 0.0089521045
000250 da c4 ca be 1d 92 e9 bf 39 ca 93 be b2 4c b6 be
       -0.3960331 -1.8247715 -0.2886522 -0.3560539
000260 86 79 4d 3d 00 b9 02 be 0e 0d 08 3f 5d d3 c0 be
       0.050164722 -0.12765884 0.5314492 -0.37661257
000270 0c ed 58 3e 94 1a 0a 3e 79 e7 4c be 2f 23 b9 3e
       0.21184176 0.13486701 -0.20010175 0.36159655
000280 17 d8 12 3e ac ba 5b 3e fe b6 67 3a 43 4a c1 bd
       0.14340244 0.21457928 0.00088392186 -0.094379924
000290 56 1f e3 3e 50 48 6f bd 07 9a ab 3d 80 46 4d be
       0.44359845 -0.058418572 0.08378988 -0.20046425
0002a0 d8 c4 fd be 4b be bf 3e 41 75 a8 3e 87 13 fa 3d
       -0.49564242 0.3744987 0.32901958 0.12210756
0002b0 c4 08 75 bf d1 ad f3 be 6f 31 a3 bd a0 de 48 3f
       -0.957165 -0.4759355 -0.07968413 0.784647
0002c0 ad 4a 6e be 94 31 1a 3c bf 6e 1c bf ab ea 3a 3e
       -0.23270674 0.009411234 -0.61106485 0.18253581
0002d0 a1 a3 f3 3d b3 db c5 bd df 52 d0 bd 0c f0 93 3d
       0.11896444 -0.09661045 -0.101720564 0.0722352
0002e0 9f 84 dd 3e 82 b9 77 be 24 9d 9d be 57 01 16 be
       0.43265244 -0.2419186 -0.3078395 -0.14648949
0002f0 5e e1 fa 3e 41 06 24 be 2a 5d 11 3e c5 ed ec bd
       0.49000067 -0.1601801 0.14195696 -0.115687884
000300 df 8c 55 3e 4a 19 96 be cd a7 e3 bd c1 4b 1d 3e
       0.2085452 -0.2931617 -0.1111599 0.15360929
000310 6e dc aa be 64 b5 c8 3e af 56 1b be 20 14 eb 3e
       -0.333713 0.3920089 -0.15169786 0.45913792
000320 5d d2 6b 3e b4 71 cd be 69 fb 6c be 0b 89 86 bd
       0.23029466 -0.4012581 -0.2314278 -0.065691076
000330 dd aa cf 3e a7 51 44 3e 8f bc ef 3e 8f a2 03 3f
       0.40560046 0.19171773 0.46823546 0.5141992
000340 0c 79 ba bd 08 9c c8 be c0 0f 1d 3f 7a 21 2b 3e
       -0.09105119 -0.39181542 0.6135216 0.16711989
000350 e1 20 9e 3e 01 18 83 be 0e 4a 14 be e4 3e 19 3e
       0.3088446 -0.2560425 -0.14481375 0.14965397
000360 32 b8 cb bd 6b 3e 5a be 43 36 5d be 2c a1 3a be
       -0.09947242 -0.21312873 -0.2160273 -0.18225545
000370 68 03 ee be 33 df c8 be b7 ef 8b 3e f1 27 56 3e
       -0.46486974 -0.39232787 0.27331325 0.20913674
000380 52 dd fc 3e d8 f5 f3 3e 59 4b 07 3f 33 6d 03 3f
       0.49387604 0.476485 0.52849346 0.513385
000390 fd cd ac 3e a4 22 37 be 72 63 81 3e 41 1b 38 3e
       0.33750907 -0.17884308 0.25271183 0.17979147
0003a0 43 02 ae be ea 4d 7a bf 0a 63 b3 3e 28 81 86 3e
       -0.339861 -0.9777514 0.35036498 0.26270413
0003b0 4b cb 23 bf 73 fd 94 be 43 7a e0 3e 24 5d 17 3e
       -0.63982075 -0.29099616 0.43843278 0.14781624
0003c0 c5 fe 58 3d 3c 27 8a bc 06 b1 ad 3e 7d b2 3d 3f
       0.052977342 -0.016864412 0.3392412 0.74100477
0003d0 81 de 83 3e 44 a2 77 3e b4 0f b6 be f7 d7 77 3e
       0.25755695 0.24182993 -0.35558856 0.24203478
0003e0 b5 2b 04 3d 77 14 f6 bd e6 e3 7c 3e e0 c7 0a 3e
       0.032268245 -0.12015622 0.24696311 0.13552809
0003f0 75 b8 af bd dd 98 17 3e 38 14 a4 3e 52 c0 9e be
       -0.08580104 0.14804406 0.32046676 -0.31006104

conv2.bias f4 [20]
000000 13 85 12 bf 5a c7 12 be 28 cc 17 bf 90 f6 46 bf
       -0.57234305 -0.14333859 -0.5929589 -0.77719975
000010 6d 18 b3 bd fb cc 1d bf f4 d4 81 be 70 75 96 3e
       -0.08744893 -0.616409 -0.25357783 0.29386473
000020 53 c8 3e 3d 4a 73 a5 3d 34 d5 76 be bd 75 a0 3e
       0.046577763 0.0807863 -0.24104768 0.31339827
000030 8f 70 13 bd 78 dc 9a be 8f cf e2 3d 5c f9 74 be
       -0.035996016 -0.3024633 0.11074745 -0.23923248
000040 4c cb a1 be f0 3f 68 be 4d 50 64 be 09 67 05 bf
       -0.31600416 -0.2268064 -0.22296257 -0.52110344

fc1.weight f4 [50, 320]
000000 51 3c c0 3e d8 46 f3 be 11 de 17 bf 32 53 fe bd
       0.37546018 -0.47514987 -0.5932322 -0.12418212
000010 a2 01 3e 3c 1f f1 9e be 56 b4 38 3b 98 c1 a6 3e
       0.011597069 -0.31043336 0.002818366 0.32569575
000020 20 0d 8e be 15 18 18 3e 89 a4 aa 3e fd 67 1a 3d
       -0.2774439 0.14852937 0.33328655 0.037696827
000030 e3 c1 da bd 86 43 5e 3e ed bc 5d bd a3 c0 a2 3d
       -0.10681512 0.21705446 -0.05413525 0.07946899
000040 72 6e e1 bd 6f a2 fd be c3 3b a8 be db 4d e3 be
       -0.11007394 -0.4953799 -0.32858095 -0.44395337
000050 e8 27 87 3d b9 a7 c4 3c c2 40 bb 3e 66 55 7d 3f
       0.065994084 0.024005758 0.36572844 0.9895843
000060 dd 88 61 3f 1c 38 4b be e5 c8 53 3e 61 b5 22 be
       0.8809946 -0.19845623 0.20682104 -0.15889503
000070 91 06 c2 be 80 eb 0f 3d 75 2c 7d 3d ae 6e 49 bd
       -0.37895635 0.0351367 0.061809976 -0.049177818
000080 c8 8f 11 3f 37 53 59 3d 83 c1 90 3e b5 f1 86 bf
       0.5686002 0.053057875 0.28272638 -1.0542513
000090 a3 67 7d 3e 92 87 51 be ee d6 81 3e 25 8b 1e bf
       0.24746566 -0.20461872 0.2535929 -0.6193107
0000a0 8b f7 c0 3c 78 02 28 bd 62 f6 0f 3e fe 2c 26 3e
       0.023555538 -0.04101798 0.14058831 0.162281
0000b0 fc 5a b2 bd c6 b5 bf 3d 0b 97 02 be c9 ef a3 3e
       -0.0870876 0.093608424 -0.12752931 0.3201888
0000c0 6f 51 17 bf a9 8d 71 3e b8 bf 0c 3f 6f d9 5a 3f
       -0.5910863 0.23589195 0.5498004 0.8548803
0000d0 1d 3c bc bb 69 64 66 3e 05 84 71 be a6 20 ef bd
       -0.0057444707 0.22499241 -0.23585518 -0.11676149
0000e0 84 97 94 3e 11 bc d5 be 0d 7e ec bd 14 c5 6b bc
       0.29021847 -0.41745046 -0.1154748 -0.014390249
0000f0 dd 60 39 3e 36 22 a6 be a8 1a ea bd 2b 49 b8 be
       0.18103357 -0.32447976 -0.114308655 -0.35993323
000100 ba b1 31 3f 29 39 00 bd 6e f7 2c 3e d4 72 5c bf
       0.69411814 -0.031304512 0.16891262 -0.86112714
000110 0f 71 ab 3d a9 b1 6f be ae 86 60 3e 18 a3 f5 bd
       0.083711736 -0.23407616 0.21926376 -0.11993998
000120 63 98 b9 3d 23 8b 75 3d 82 f7 1d 3e 16 12 d7 be
       0.090622686 0.059947144 0.15426448 -0.42005986
000130 dc 5d e3 3d 4a eb 8c 3d a0 e1 09 bd 72 71 08 bf
       0.11101887 0.06880815 -0.03366244 -0.53298104
000140 51 ed 2d 3d fd b6 04 be c3 03 a1 be ca 1d cc be
       0.04246265 -0.1296043 -0.31448182 -0.39866477
000150 ae a3 99 3e f2 62 f2 bc 5c 42 0b be 0d 3f ac 3e
       0.3000769 -0.029588196 -0.13599533 0.33641854
000160 35 87 b5 3e 46 46 36 be 08 a9 60 3e 52 e5 30 bf
       0.35454717 -0.17800245 0.2193948 -0.69099915
000170 ab 73 c0 bd c6 4c 8f 3e 9f 59 ab 3e 94 2c 2a 3e
       -0.09397062 0.2798826 0.33466813 0.16618568
000180 aa 07 76 bf 67 3d 92 bf 0d ae 34 3e a3 6f 63 3f
       -0.96105444 -1.1424989 0.1764452 0.8884222
000190 52 c1 b1 be a6 5b c9 3e 4c 8e 55 3f 6c 87 af 3d
       -0.34717804 0.39327735 0.8342025 0.085707515
0001a0 a7 4b 06 bf 65 66 10 be 8a 20 c8 3e 88 39 bb be
       -0.52459186 -0.1410156 0.39087325 -0.3656733
0001b0 fb 59 05 bf f6 9f a3 3e 0d a5 a5 3e 0f 93 4f be
       -0.52090424 0.31957978 0.32352486 -0.20270942
0001c0 1e ba b2 bf 11 0e d7 be 41 3d f5 3d 2c 46 3e 3f
       -1.3963048 -0.4200292 0.11974574 0.74325824
0001d0 77 d2 45 3c da d4 84 ba fc 58 8c 3e 1d 10 55 3f
       0.0120741045 -0.0010134235 0.2741164 0.8322771
0001e0 09 e8 82 bd 9d b9 1e 3e 69 93 e2 b9 ad ad 96 be
       -0.063919134 0.15500493 -0.00043215908 -0.2942938
0001f0 e8 67 a3 bd 3c b9 95 bd 40 c9 9f bd 80 2a 42 be
       -0.07978803 -0.07310721 -0.07802057 -0.18961525
000200 45 43 13 be ec 78 29 bf 4c 72 f3 be 68 a7 7b bf
       -0.1438113 -0.6620014 -0.4754814 -0.98302317
000210 09 ea cd 3d d5 1d a2 3d 07 00 01 be 0f 95 16 bf
       0.10054404 0.07915846 -0.12597667 -0.58821195
000220 8b e4 2d 3e bc 60 d3 3d a5 b1 c7 bd db 16 74 3f
       0.16981713 0.10321185 -0.0975068 0.95347375
000230 32 f0 dc 3e 51 50 89 3e bf 3c 40 3c e3 35 ca be
       0.43152004 0.2681909 0.011733233 -0.39494237
000240 38 ff ef 3d b2 e4 97 be 82 f0 e1 be a5 2b 93 be
       0.11718601 -0.29666668 -0.44128805 -0.28744236
000250 7c f9 df 3e ef b5 49 3c b0 ce e3 bd 98 a3 78 be
       0.4374503 0.012311443 -0.11123407 -0.24281156
000260 df 55 ab 3e b0 99 73 3d 77 bd 38 3d d1 89 5b be
       0.33463952 0.05947274 0.045102563 -0.21439292
000270 27 15 a5 be 97 88 26 3e e0 a0 47 be 0a 56 08 3e
       -0.322427 0.16263042 -0.19494963 0.13314071
000280 8d df 05 3d 89 76 ea 3e d6 af 8f 3e e9 c3 ec be
       0.032683898 0.4579356 0.2806384 -0.46243218
000290 ad af fd 3e fb 74 64 3e e3 56 c1 be e0 43 85 bf
       0.49548092 0.2231025 -0.37761602 -1.0411339
0002a0 eb bb 39 3e 92 0b 75 be ec 1e a3 3d f4 7a 23 bf
       0.18138091 -0.23930195 0.07964882 -0.63859487
0002b0 c1 e7 1c bf 91 06 73 3e b3 cb d7 3d 9e 95 56 3d
       -0.6129113 0.23732974 0.105368994 0.05238878
0002c0 58 0d 3e be 7b 37 81 be 5f 07 96 bf d9 f7 ef 3c
       -0.18559778 -0.2523764 -1.1721 0.029292988
0002d0 85 e2 29 bd 76 c1 52 be 2c 52 5e 3e 2c 4e 4e 3f
       -0.04147579 -0.20581612 0.21711034 0.8058803
0002e0 71 09 a4 3e a2 3c 61 bf a7 e3 10 3e 8b 20 aa 3c
       0.32038453 -0.87983143 0.14149342 0.02076747
0002f0 16 24 c8 3e fc 01 83 3d f9 90 29 3e 02 b9 94 b7
       0.3909003 0.06396863 0.16559209 -1.7729126e-05
000300 c8 66 e3 3c 5e cc 89 be 09 0c 71 bf 43 8e c8 3e
       0.02775897 -0.26913732 -0.9415899 0.39171037
000310 9f bd ea bd 9a 76 b5 3d d8 9e 59 3e ca b6 ff be
       -0.114619486 0.08860512 0.21252 -0.49944144
000320 af 93 c5 3d 15 b6 40 3e 85 85 29 3e d8 28 0c bd
       0.09647309 0.18819459 0.1655484 -0.03421864
000330 35 45 19 3d 4c 38 18 bd b8 71 50 3e 33 b5 e2 bd
       0.037419517 -0.037163064 0.2035588 -0.11069717
000340 ea d3 dd bc df a1 67 bd 7f b3 97 3d 0a 6b 88 3e
       -0.027078588 -0.056550857 0.07407283 0.26644164
000350 2e 7c 23 be d1 97 30 3d 54 50 b2 bd 85 13 ed bd
       -0.1596534 0.043113533 -0.087067276 -0.11575989
000360 af 8f 06 3d fb fd 1c be 32 d0 9c 3d 82 cd 84 bd
       0.03285187 -0.15331261 0.076568976 -0.0648451
000370 80 3a 0a 3f 19 79 7e 3c cc f8 98 3d ef 84 ee bd
       0.53995514 0.015531802 0.07469329 -0.11646449
000380 31 5f b9 be 90 7f 65 be a1 96 c0 3c 4f 47 e1 3e
       -0.36205438 -0.22411942 0.023509325 0.43999717
000390 c9 ee 38 3e 48 b0 ce bd 3d ba 1b 3e ca c6 c8 bd
       0.1805984 -0.10092217 0.15207763 -0.09803541
0003a0 d2 c8 e2 bd 2e 02 0a 3d 44 7f 59 3e be bc 8e bb
       -0.1107346 0.033693485 0.21239954 -0.004355996
0003b0 21 40 7c be 25 6e 91 3e cc 45 5c 3e 54 6d 87 3e
       -0.24633838 0.28404346 0.21511 0.26450598
0003c0 ef df 20 bd da 64 c5 bd 9e aa 22 3e 1a 18 f4 3e
       -0.03927606 -0.096383765 0.15885398 0.47674638
0003d0 66 ff ab bd ce c6 07 be f9 9b 0e bd ff fb 4e bd
       -0.08398323 -0.13259432 -0.034816716 -0.05053329
0003e0 f6 38 65 3e 12 e0 1b 3e 8d 6c 7e be c1 2c 95 bd
       0.2238501 0.15222195 -0.24846096 -0.07283927
0003f0 68 7e 95 be 07 b4 5c bd ff 0e a6 be 16 22 91 3d
       -0.29198003 -0.053882625 -0.32433316 0.070865795

fc1.bias f4 [50]
000000 ec ba 4b be c6 b0 35 3f c6 38 e5 3e d5 4f 03 3f
       -0.19895524 0.7097286 0.44769877 0.5129369
000010 8a 3a 1c bf 06 a8 14 3e ae e3 55 3f 9c 7f 03 bf
       -0.61026824 0.14517221 0.83550537 -0.5136659
000020 04 85 a7 3d ae 68 55 3f b3 02 ba 3f 1f 27 1c 3f
       0.081796676 0.83362854 1.4532074 0.60997194
000030 cd d4 9a 3e ea f3 2f be c7 e5 fe be 9f ae 63 3f
       0.3024048 -0.1718289 -0.4978468 0.88938326
000040 da ce be 3f 55 61 9b 3e 6b 93 f5 3e 94 21 3b bf
       1.4906876 0.30347696 0.47964033 -0.7309811
000050 e4 fa f7 3e b0 b3 b1 bd 0f 7d 7f 3f 58 b4 b8 3d
       0.48433602 -0.08676851 0.998002 0.09018773
000060 b4 fd 86 3f 4f e3 5a 3e 5c 05 50 bf 94 48 37 3f
       1.0546174 0.21375774 -0.8125818 0.7159512
000070 87 4e 0f bf fc 14 15 3f 8e fd 57 3f f8 00 91 3e
       -0.559792 0.58235145 0.8437127 0.28321052
000080 86 43 51 3f ac 1d 4d bf 88 6d 27 be 06 75 c0 3d
       0.8174366 -0.801234 -0.16350377 0.093973204
000090 a4 06 cf be 67 84 3e bf b1 15 9e 3e 33 98 8a 3b
       -0.40434754 -0.7442078 0.30875924 0.0042295693
0000a0 ee fc 9d 3e c4 ef 32 bf 65 47 80 3e ec 71 b6 3e
       0.30857033 -0.69897103 0.2505447 0.3563379
0000b0 a6 1e 4d 3e 8c 1e 2f 3e 09 1f cb be d8 90 76 3f
       0.20031223 0.17101496 -0.39672115 0.96314764
0000c0 d3 08 6a 3f f8 a0 b8 3d
       0.91419715 0.09015077

fc2.weight f4 [10, 50]
000000 cb 55 8d 3d b0 d8 5c 3c 43 f5 73 be 84 7e 8c be
       0.06901129 0.013479397 -0.23824029 -0.27440274
000010 b3 0a c0 3d b7 8c d1 bd 55 84 68 be c5 c0 c5 bd
       0.09377041 -0.10231917 -0.2270673 -0.096559085
000020 4a 98 5e be 12 ea a5 bc bc d1 a2 be 76 cc 1d bf
       -0.21737781 -0.020253215 -0.3180064 -0.6164011
000030 93 34 2b 3c ff b8 94 be a9 cd 05 3e d4 e5 01 bf
       0.010449546 -0.2904739 0.13066734 -0.50741315
000040 93 ea bb 3d 9f 44 cc be c4 a0 6f be af c8 12 3e
       0.09175601 -0.39896104 -0.23401171 0.14334367
000050 bf 27 d3 be 1f 8d 64 be 74 03 eb 3d 3e 97 8e be
       -0.4124126 -0.22319458 0.11475268 -0.27849764
000060 78 b9 2d be e7 7d cb be b8 7a aa 3d 1b 36 28 be
       -0.16965282 -0.39744493 0.08324188 -0.1642689
000070 f1 7d 88 be 08 b7 5e be 78 ba bd 3d 73 c0 48 be
       -0.26658586 -0.21749508 0.09264082 -0.19604664
000080 5d cb c7 be 33 b9 3b 3d aa 0d 96 3d 12 79 f9 3d
       -0.3902234 0.045830917 0.07326825 0.121812955
000090 d8 e7 44 be f2 fd ba be f5 fc a2 be db 47 b5 be
       -0.19229066 -0.3652187 -0.31833616 -0.35406384
0000a0 cd 67 f3 3d a5 0c d3 be bc cd 24 be c0 d9 f5 3d
       0.11885033 -0.41220585 -0.16094106 0.12004423
0000b0 8a 37 80 be dc c6 ca 3d 97 4b 16 be fe fb cc 3d
       -0.25042373 0.09901211 -0.14677273 0.10009001
0000c0 3d a7 67 be d0 2b a1 be fa 49 8c be 51 48 9f be
       -0.2262239 -0.3147874 -0.2740019 -0.3110986
0000d0 7b 60 c2 bd 59 29 90 3d 1e 14 e5 be 72 4f 0a 3d
       -0.094910584 0.070391364 -0.4474191 0.03376717
0000e0 f0 4f 43 be 29 30 45 be 07 cb 44 3d ff 2d 08 3e
       -0.19073462 -0.19256653 0.048045184 0.13298796
0000f0 b3 90 a7 3d b3 7c 20 3c 68 91 d8 be 45 21 34 be
       0.08181896 0.009795356 -0.42298436 -0.17590816
000100 0f 78 93 be b8 36 15 3e 6d dc 3d 3d 8a d4 8c be
       -0.28802535 0.14571655 0.046352793 -0.27505904
000110 ea 28 ba 3d 48 20 c5 be ab 59 d5 3d f7 02 64 be
       0.09089835 -0.3850119 0.104174934 -0.22266756
000120 f0 3c b4 3d be 31 a0 be 65 a3 de 3d 4d dc a5 3d
       0.088006854 -0.3128795 0.10871009 0.0809866
000130 41 18 d4 be e0 4f 0a 3e 59 fa 5c be bd e1 84 be
       -0.41424754 0.13507032 -0.21579875 -0.25953475
000140 42 06 b8 3c 08 f6 06 3e a4 86 d2 3d 3f d4 06 bf
       0.022463921 0.13179791 0.10279587 -0.5266761
000150 e1 16 05 bf f5 90 d5 be 27 bc da be 6d 1d 8e be
       -0.51988035 -0.41712156 -0.42721674 -0.27756825
000160 89 e0 c3 3d 98 48 90 be b3 86 e3 be 5a ac 59 bd
       0.09564311 -0.28180385 -0.44438705 -0.053142883
000170 07 a0 2c be 3a 57 87 be 31 e2 b1 be 6b 7a 0f bf
       -0.1685792 -0.26433736 -0.34742883 -0.5604617
000180 b8 00 bc be e8 f4 dc 3d 19 74 25 3e 71 9f 3d be
       -0.36719298 0.107889 0.16157569 -0.18517853
000190 7f 90 9b 3d 31 58 41 3d 2e 09 d3 3d f9 36 a8 3d
       0.0759592 0.047203247 0.10304485 0.0821361
0001a0 a4 33 c9 3d 6c 63 13 3e ca 21 8b bc ca 32 69 bd
       0.09824303 0.14393395 -0.016983885 -0.0569332
0001b0 7e ba 89 3d f6 b4 1d 3e 61 86 71 be bd cf 70 be
       0.06725024 0.15401062 -0.23586418 -0.23516746
0001c0 e6 92 f2 bd 20 1f 6a 3d 5b 05 f5 3d 28 7d 47 be
       -0.11844425 0.05715859 0.11963912 -0.19481337
0001d0 cc 5a bf be 7b 9f 88 bd 55 11 fc bd 14 4c 14 3e
       -0.3737396 -0.066710435 -0.12307993 0.14482147
0001e0 b3 4e 08 be da 76 e1 bd 20 1d 52 be ec 4b 4f be
       -0.13311271 -0.11008997 -0.20518923 -0.20243806
0001f0 18 10 09 3e 61 ba db 3d 69 fc 40 3d 8d 38 4c be
       0.13385046 0.10728908 0.047115717 -0.19943447
000200 5f 47 c0 3d 3d 58 7e be e5 4d 37 be cf 6f f3 3d
       0.09388613 -0.24838348 -0.17900808 0.1188656
000210 1d 31 bd 3d 48 d0 5e be eb 33 63 3d 94 32 72 be
       0.09237883 -0.2175914 0.055469435 -0.23652107
000220 55 9f 42 be 7f 1e 94 3d 32 0a 57 be ee a9 0f be
       -0.19006093 0.07232379 -0.20999983 -0.14029667
000230 23 1c 24 be 30 f3 45 be 0a b4 b5 3d 8e 23 de 3d
       -0.16026358 -0.1933105 0.0887223 0.10846625
000240 15 06 2c be 96 b3 6f be 86 61 36 be 16 eb 78 be
       -0.16799195 -0.2340835 -0.1781064 -0.24308428
000250 13 04 1a 3e 8c 03 90 3d 5d 5a 85 3d 07 20 52 3d
       0.15040617 0.070319265 0.06511376 0.051300075
000260 2a 32 07 3e d3 d9 a7 3d 94 57 4b be 53 01 43 3e
       0.1320273 0.081958435 -0.19857627 0.19043474
000270 c7 9b e4 3d 9f 0d f6 3d 60 92 7e 3d ae d4 1f bd
       0.11162525 0.12014317 0.062151313 -0.039021187
000280 e9 eb 36 be 90 36 8a be 94 13 17 be 0d bf 55 3d
       -0.1786343 -0.26994753 -0.14753562 0.052184153
000290 33 3e dd 3d b9 bb eb bd 39 37 5b be 02 3a 0c 3e
       0.10802879 -0.11510415 -0.21407785 0.13694003
0002a0 50 f2 47 be e1 1f be 3c fe 40 d1 3d 34 37 d9 bd
       -0.19526029 0.02320856 0.102174744 -0.10606232
0002b0 4a d1 e0 bd 08 a0 4f be 4c b6 e4 bd d6 d0 31 bd
       -0.10977419 -0.20275891 -0.11167583 -0.043412052
0002c0 50 5b a5 3d 7d 20 fc bd 10 50 dc 3d 96 a8 74 3d
       0.08074057 -0.12310884 0.10757458 0.05973109
0002d0 77 a0 ca bd 1a 00 00 3e 12 50 3c be a3 c1 b2 bb
       -0.098938875 0.12500039 -0.1838992 -0.005455212
0002e0 3f 2f 49 be 46 60 ca 3d d7 78 04 3e 10 d3 5c 3d
       -0.19646929 0.09881644 0.12936722 0.053912222
0002f0 d6 c6 d0 3d 71 e9 af bd fa a9 c3 3d 63 30 c1 3d
       0.10194175 -0.08589447 0.09553905 0.09433057
000300 1b 4d d5 3d 8e 01 9f bd 5e 06 c8 3d 96 a1 bf be
       0.10415097 -0.077639684 0.097668394 -0.37427968
000310 ea db 60 be 35 8a 1b be 7d 6c 33 3e 9a b0 3c be
       -0.2195889 -0.1518944 0.17521854 -0.18426743
000320 53 3a 7e be 57 dc 48 3d 08 d1 96 bd 91 c8 6f 3d
       -0.24826936 0.049038257 -0.07364088 0.058540884
000330 b4 18 78 3d a2 e1 10 be b6 6f ca 3d 7b 92 e1 bd
       0.060570434 -0.14148572 0.098845884 -0.11014267
000340 36 fa 25 be 04 98 d4 3d ce f0 d5 3d 2b f8 ad 3d
       -0.16208729 0.10380557 0.104463205 0.084946
000350 64 15 38 be b7 37 2c be 26 68 fc 3d c2 fb 35 3e
       -0.1797691 -0.16818129 0.12324552 0.17771819
000360 ed ee 9d be dc 28 e3 3d 6a c6 b0 3d ff d8 31 bd
       -0.30846348 0.11091778 0.086315945 -0.043419834
000370 89 1f f4 3d ac 72 d2 3d bf a7 47 be f3 c1 86 3d
       0.11920077 0.10275778 -0.19497584 0.06579962
000380 fe e5 f0 3d 5d 2a 6e bd 2e b5 94 be 21 26 18 3e
       0.117626175 -0.05814587 -0.2904448 0.14858295
000390 db 8e 9d be 4b d6 1d be 24 34 2a be 2d e8 4d be
       -0.30773053 -0.15413778 -0.16621453 -0.201081
0003a0 b9 35 f5 3d be 1a a7 be ef 90 ad 3d 44 e5 84 be
       0.119731374 -0.3263759 0.084749095 -0.25956166
0003b0 29 37 dd 3d ec 83 89 3d 01 f8 6e be e6 06 d6 3d
       0.108015366 0.06714615 -0.23336793 0.104505345
0003c0 72 ef 91 be 11 3b 62 3c 09 0f f8 bd c0 59 3b bd
       -0.28502995 0.013808028 -0.12112243 -0.04573989
0003d0 fb 79 76 bd b3 79 f5 3d 7d e7 fa 3d fe 6d e0 bd
       -0.060174923 0.11986103 0.12251184 -0.10958479
0003e0 9a b7 0a be 80 ac c0 3d 9b 25 89 be 4c 41 80 be
       -0.13546601 0.09407902 -0.26786503 -0.25049818
0003f0 9e 47 5a be 00 3b 39 be b2 82 5f be 8f af 77 bc
       -0.21316382 -0.18088913 -0.218272 -0.01511754

fc2.bias f4 [10]
000000 88 b4 09 40 eb 07 2f 40 1e 01 90 3e 00 1a c7 bf
       2.1516438 2.7348583 0.28125852 -1.555481
000010 31 ee 11 bf 45 32 4b 3e 7d 54 f3 bd 44 b3 36 bf
       -0.57004076 0.19843395 -0.11881349 -0.7136729
000020 3a 3f 61 be 0a be 8b bf
       -0.21996775 -1.091737
