misc/saved_models/svhn_model_MMVAE.pt (torch_old, 126689 bytes, 8 tensors)

conv1.weight f4 [10, 3, 5, 5]
0	0x3e37bb65	0.17942579
1	0x3ea0f8c9	0.31439808
2	0x3d5f640b	0.054538768
3	0xbde16e7c	-0.11007401
4	0xbe8f5d87	-0.28001043
5	0x3d986392	0.074408665
6	0x3e9b60d6	0.30347317
7	0x3c966fa8	0.018363789
8	0xbdb2f16a	-0.08737452
9	0xbe9941a8	-0.29932904
10	0x3e5cfdc2	0.21581176
11	0x3e101229	0.14069428
12	0x3df53eef	0.11974894
13	0xbe9c2c2e	-0.30502456
14	0xbea05942	-0.31318098
15	0x3e9d6f7c	0.30749118
16	0x3d864921	0.06556917
17	0xbe453d77	-0.19261728
18	0xbe6b377f	-0.22970389
19	0xbe0d7415	-0.13813813
20	0x3f0b1136	0.54323137
21	0x3d2c1db6	0.042020522
22	0xbeac0d1d	-0.33603755
23	0xbe57ddce	-0.21080706
24	0x3d3f6a01	0.046731953
25	0x3e34d2b1	0.17658497
26	0x3e9e61a3	0.30933866
27	0x3e1766f1	0.14785363
28	0xbe571b80	-0.21006584
29	0xbe9ddf13	-0.30834255
30	0x3d9f02f3	0.077642344
31	0x3e50b74c	0.20382422
32	0x3e20f676	0.15719017
33	0xbe83f3dd	-0.2577199
34	0xbe1f600b	-0.15563981
35	0x3eaa5197	0.33265373
36	0x3ec06e29	0.37584046
37	0x3b9f962c	0.004870197
38	0xbe73f38c	-0.23823375
39	0xbec9e32b	-0.39431128
40	0x3f06bed1	0.5263491
41	0x3dbac6c1	0.091199405
42	0x3b95e285	0.0045741224
43	0xbe868cf2	-0.26279408
44	0xbe5a696e	-0.2132928
45	0x3f485451	0.78253657
46	0x3e263095	0.1622947
47	0xbebefe91	-0.37303594
48	0xbed09cc7	-0.40744612
49	0xbddd2be5	-0.10799388
50	0xbe313a24	-0.17307335
51	0x3e9f53bf	0.3111858
52	0x3c7365f4	0.0148558505
53	0xbeb77dfb	-0.35838303
54	0xbea6d54a	-0.32584602
55	0xbd79ee1f	-0.061018106
56	0x3e9ab09d	0.3021287
57	0x3e300a8c	0.17191523
58	0xbd8f2263	-0.069889806
59	0xbe4c5855	-0.19955571
60	0x3df37a92	0.11888613
61	0x3e57ad78	0.21062267
62	0xbcb811e2	-0.022469465
63	0xbea25a72	-0.3170963
64	0xbdb77555	-0.08957926
65	0x3e129383	0.14314084
66	0x3e309900	0.17245865
67	0xbca195a8	-0.019724682
68	0xbd5b7591	-0.053578917
69	0x3d5df945	0.0541928
70	0x3ea85510	0.32877398
71	0x3cadf070	0.021232814
72	0xbec41922	-0.38300425
73	0xbea40302	-0.32033545
74	0x3ea11dee	0.31468147
75	0xbde9d141	-0.11416865
76	0x3db3afbc	0.08773753
77	0x3d35bdb5	0.04437037
78	0xbcedde72	-0.029036734
79	0x3d546431	0.051853362
80	0xbd888977	-0.06666844
81	0x3d4a6760	0.049414992
82	0xbc101f05	-0.008796458
83	0xbdd4b775	-0.10386554
84	0xbc1c9077	-0.0095559275
85	0x3d1c133a	0.038104273
86	0xbdbab0e4	-0.091157705
87	0x3d72937f	0.059222694
88	0xbd820a24	-0.063495904
89	0x3d66816b	0.056275766
90	0xbd8314a2	-0.0640042
91	0x3c8d618e	0.017258432
92	0xbddd7f88	-0.1081534
93	0xbd3a9901	-0.045556072
94	0x3cc4acfd	0.024008268
95	0xbd63de56	-0.055631958
96	0x3c954160	0.01821965
97	0xbdddfd12	-0.10839285
98	0xbb76017e	-0.003753751
99	0xbded897b	-0.11598488
100	0x3d12b326	0.03581538
101	0xbc507c89	-0.012725004
102	0xbdc4d1fc	-0.09610364
103	0xbdec69c6	-0.11543612
104	0xbd101899	-0.03517971
105	0xbd7c4bdc	-0.061595783
106	0xbda3e10d	-0.080019094
107	0x3dd42798	0.103591144
108	0x3d01c480	0.031681538
109	0xbdace80b	-0.08442696
110	0x3d4c8604	0.049932495
111	0xbd9f12bc	-0.07767245
112	0xbd9b608a	-0.07586773
113	0xbcd413ee	-0.02588841
114	0x3dad07e9	0.08448774
115	0x3dc6c684	0.097058326
116	0x3d7b558b	0.061360877
117	0x3d55e6c8	0.052222043
118	0xbca9607b	-0.020675888
119	0xbbb86df2	-0.005628341
120	0x3d9d8b34	0.076925665
121	0xbdc1d5d5	-0.09464613
122	0x3d5a4ecd	0.053297807
123	0xbd440df0	-0.047864854
124	0x3d330fdc	0.043716297
125	0x3cb7e1cc	0.022446536
126	0xbdaf53d3	-0.0856091
127	0xbd0a13dc	-0.033710346
128	0x3cb24d5b	0.021765402
129	0xbbfe9f13	-0.007770428
130	0x3d815285	0.063145675
131	0xbd92dcd0	-0.07171023
132	0xbc4527e1	-0.012033434
133	0xbd866efb	-0.065641366
134	0x3c70941a	0.014683748
135	0xbd36a3fb	-0.044589978
136	0xbd8726ef	-0.06599223
137	0x3d377c4f	0.044796284
138	0x3d7557ab	0.05989806
139	0x3dd271a9	0.10275585
140	0x3da75c8c	0.08171949
141	0xbd773131	-0.060349647
142	0xbb51a5a6	-0.0031989603
143	0x3db9b063	0.09066846
144	0xbdcb115a	-0.09915419
145	0xbdd88066	-0.10571365
146	0x3ccd934c	0.02509465
147	0xbc2855d7	-0.010274372
148	0x3c836876	0.016041022
149	0x3dcf18f8	0.10112184
150	0x3e4ef449	0.20210375
151	0xbecefcf7	-0.40427372
152	0xbf02c661	-0.5108395
153	0xbe828e91	-0.25499395
154	0x3d81c75e	0.063368544
155	0x3ea17ffc	0.31542957
156	0x3bffffa4	0.007812457
157	0xbe943d5b	-0.2895306
158	0xbeab4cc2	-0.33457
159	0xbe9fa85c	-0.31183136
160	0x3eb06f62	0.34459978
161	0x3e2e77e9	0.1703793
162	0xbbe04eef	-0.006845347
163	0xbea1939b	-0.31557927
164	0x3cac6908	0.021046177
165	0x3e5dfb50	0.216779
166	0x3eb5c4f7	0.35501835
167	0x3e39d296	0.18146738
168	0xbe0ea20c	-0.13929003
169	0x3d26a258	0.040682167
170	0xbbf8a032	-0.007587456
171	0x3ecfead6	0.40608853
172	0x3ef9b018	0.4876716
173	0x3c9f77fd	0.019466395
174	0xbe8d425c	-0.2758969
175	0x3e6aee37	0.22942434
176	0xbec6eeb9	-0.38854006
177	0xbf0e6503	-0.5562288
178	0xbf001705	-0.50035125
179	0xbdd3686f	-0.103226535
180	0x3e853a21	0.2602091
181	0xbe240fff	-0.16021727
182	0xbec7d8e3	-0.3903266
183	0xbf0e576c	-0.55602145
184	0xbeaed4e6	-0.34146804
185	0x3eb2add0	0.34898233
186	0x3e9d7aa0	0.30757618
187	0xbdc5947f	-0.09647464
188	0xbeb76065	-0.3581573
189	0xbe3cc36c	-0.18433923
190	0x3ed8592c	0.42255533
191	0x3f118ef0	0.5685873
192	0x3e53a28e	0.20667478
193	0xbd8b459a	-0.06800385
194	0x3c8362e3	0.016038364
195	0x3dd59bc9	0.10430104
196	0x3f2c3f57	0.6728415
197	0x3f1b9af3	0.6078331
198	0x3e942967	0.28937837
199	0xbe43953a	-0.19099894
200	0x3e05c16a	0.13062063
201	0xbe90857b	-0.28226838
202	0xbed56386	-0.41677493
203	0xbde3d9c2	-0.111255184
204	0x3e78c83a	0.2429513
205	0x3d70a43c	0.058750376
206	0xbd447a46	-0.04796817
207	0xbe69e61e	-0.22841689
208	0xbe98d274	-0.29848063
209	0xbd2c069b	-0.041998487
210	0x3e655ea5	0.22399385
211	0x3e5db748	0.21651947
212	0xbdf88c51	-0.12136138
213	0xbe147101	-0.14496233
214	0x3c50e0b6	0.012748888
215	0x3daf1f58	0.085509
216	0x3ebafec0	0.36522484
217	0x3e42d10d	0.19025059
218	0xbd417316	-0.047228895
219	0xbb8f1d1b	-0.0043674833
220	0xbe855141	-0.26038554
221	0x3eb49988	0.35273385
222	0x3e946503	0.28983316
223	0x3ac28894	0.0014841729
224	0xbe50363b	-0.20333187
225	0x3d23ba12	0.039972372
226	0xbe8d0d2a	-0.27549106
227	0xbe92b204	-0.2865144
228	0xbe1e2a48	-0.15445817
229	0x3edc7743	0.4305974
230	0xbe67e209	-0.2264482
231	0xbea057f4	-0.31317103
232	0x3df039c8	0.11729771
233	0x3e06a9f7	0.13150774
234	0x3e96d566	0.29459685
235	0xbe94c837	-0.29059002
236	0xbeabd99b	-0.33564457
237	0x3e6808a9	0.22659554
238	0x3e4595e6	0.19295463
239	0x3e28cd18	0.16484487
240	0xbe6947c1	-0.22781278
241	0x3cb1063e	0.021609422
242	0xbd1675ac	-0.036733314
243	0xbd1fc0a2	-0.03900207
244	0x3e25d447	0.16194259
245	0xbe169da4	-0.14708573
246	0x3e9d39d4	0.30708182
247	0x3db8cf1c	0.09023878
248	0x3d219a24	0.03945364
249	0x3e66e2f8	0.22547519
250	0xbe24ffa6	-0.16113147
251	0xbeeb9fd1	-0.46020368
252	0xbf05dc79	-0.5228954
253	0xbe8d69bc	-0.2761973
254	0x3ec16de1	0.37779143
255	0xbedcc73a	-0.43120748

conv1.bias f4 [10]
0	0xbd272436	-0.040806018
1	0xbda9b2c4	-0.0828605
2	0xbd032a5a	-0.03202281
3	0xbce33fe4	-0.027740426
4	0xbe9f9b99	-0.311734
5	0x3ca473e2	0.020074788
6	0xbd8b9e4e	-0.068173036
7	0xbd7389cb	-0.05945758
8	0x3bab8e86	0.005235496
9	0xbc637e13	-0.013885039

conv2.weight f4 [20, 10, 5, 5]
0	0xbd80219d	-0.06256411
1	0xbd991132	-0.07473983
2	0x3c85d46c	0.016336642
3	0xbb93fe72	-0.004516416
4	0xbcefb76d	-0.029262269
5	0xbd17ffa2	-0.037109025
6	0x3cd21b72	0.025647853
7	0xbda99e46	-0.082821414
8	0xbc00d73a	-0.007863814
9	0xbcd07395	-0.025445739
10	0xbd874c07	-0.06606298
11	0xbd91931b	-0.07108136
12	0xbbdbfe38	-0.006713655
13	0xbcea331f	-0.02858883
14	0xbae4bff4	-0.0017452226
15	0xbd20b441	-0.039234404
16	0x3c43e8a2	0.011957319
17	0xbc9a319e	-0.018822487
18	0xbcad3f5b	-0.021148374
19	0x3bff7c16	0.0077967746
20	0xbd22ce5b	-0.039747577
21	0xbdd187a7	-0.10230952
22	0x3a74d99b	0.0009340287
23	0x3d25aac5	0.04044606
24	0x3c0d15a7	0.008611119
25	0xbd53acc6	-0.05167844
26	0xbc38d454	-0.011281092
27	0xbd4be7fa	-0.049781777
28	0xbc693390	-0.014233485
29	0x3cd12558	0.025530502
30	0x3d2feab8	0.042948455
31	0x3c8feb48	0.017568246
32	0xbd248200	-0.04016304
33	0xbd6e98b1	-0.058251087
34	0x3cedbd2c	0.029020868
35	0x3d22da57	0.039759006
36	0xb82d2883	-4.1284144e-05
37	0xbc8898de	-0.016674455
38	0x3ce2d1f4	0.027688004
39	0x3d399d36	0.045315944
40	0xbc3b6870	-0.011438474
41	0x3c991319	0.018685864
42	0x3b5a989f	0.003335513
43	0x3d568136	0.05236932
44	0xbc8109fe	-0.015751835
45	0x3d531496	0.051533304
46	0xbcdc88ee	-0.026920762
47	0x3c302c1f	0.010752707
48	0x3d676f3d	0.05650257
49	0xbcb6cf96	-0.022315782
50	0x3ce74c2a	0.02823456
51	0xbcbe9128	-0.023262575
52	0xbd671249	-0.056413922
53	0x3ac79231	0.0015226064
54	0xbc90772b	-0.017634949
55	0xbd452c28	-0.048137814
56	0xbbdb6b54	-0.006696144
57	0xbc5fdc50	-0.013663366
58	0xbc3ac588	-0.011399634
59	0xbd88ccc1	-0.06679679
60	0x3d68d514	0.056843832
61	0xbd4c5571	-0.04988617
62	0xbd1d65b1	-0.03842706
63	0xbca423d3	-0.020036614
64	0xbd3fb58c	-0.046803996
65	0x3d508696	0.0509096
66	0xbb4a6b5f	-0.0030886752
67	0x3d46505a	0.048416473
68	0xbd250e7d	-0.04029702
69	0xbd71fbf2	-0.059078164
70	0xbb929b07	-0.004474047
71	0xbb1325c2	-0.0022452925
72	0xbdc08d51	-0.09401954
73	0xbd075864	-0.03304328
74	0xbd7ecbd7	-0.062206116
75	0xbd95e545	-0.0731912
76	0x3cbc4e6f	0.022986619
77	0xbd532795	-0.05155142
78	0xbd95293f	-0.07283258
79	0xbbf79d3a	-0.0075565847
80	0x3c26e828	0.010187186
81	0xbd9789b3	-0.07399311
82	0xbbc7d4ea	-0.0060983794
83	0xbc7fa059	-0.015602195
84	0xbd241fab	-0.040069263
85	0x3ce7e893	0.028309142
86	0xbd524cb3	-0.051342677
87	0x3c57f467	0.013180829
88	0x3d3f6b33	0.046733093
89	0xbd88f90f	-0.06688129
90	0xbcdd1d23	-0.026991433
91	0xbd77461c	-0.060369596
92	0xbd659445	-0.056049604
93	0x3c52b332	0.012860106
94	0xbd94ecbd	-0.07271717
95	0xbd2d56be	-0.042319052
96	0xbd88ba27	-0.06676131
97	0x3d32f45c	0.04369007
98	0xbd89f051	-0.0673529
99	0xbd66d011	-0.05635077
100	0xbd80bbf0	-0.06285846
101	0xbcc2e4d2	-0.02379075
102	0x3ba7e05f	0.0051231827
103	0xbd09d60e	-0.033651404
104	0xbd0a6277	-0.03378531
105	0xbd1e6535	-0.038670737
106	0xbd4d6b43	-0.05015112
107	0x3b0460b3	0.0020199239
108	0xbcccee87	-0.025016082
109	0xbda25fe9	-0.0792845
110	0xbd79c3c5	-0.060977716
111	0x3c83fa03	0.016110426
112	0xbd0762b0	-0.0330531
113	0xbceee49a	-0.02916174
114	0xbb42b133	-0.002970767
115	0xbdc9a1a8	-0.098452866
116	0x3c7eaee0	0.015544623
117	0xbd514bc6	-0.051097654
118	0xbd2cf6ef	-0.04222768
119	0xbca89a4f	-0.020581393
120	0x3c353203	0.011059287
121	0x3c0e4713	0.008683938
122	0xbd9f0a7e	-0.07765673
123	0xbdb44912	-0.088029996
124	0xbd39a16a	-0.045319952
125	0x3ac21a80	0.0014808923
126	0x3d40ba52	0.04705269
127	0xbcc05936	-0.02348004
128	0xbba76f28	-0.0051096864
129	0x3ca598dc	0.02021449
130	0x3cda76dc	0.026668005
131	0x3d28f634	0.041250423
132	0x3d1b753a	0.037953593
133	0x3d30ac32	0.04313297
134	0x3d356d50	0.0442937
135	0x3ce46ad8	0.027882978
136	0x3c6ca730	0.0144441575
137	0x3c800ea0	0.015631974
138	0x3ba3ddd0	0.0050008073
139	0xbd01fdc9	-0.03173617
140	0x3d6f76fa	0.058463074
141	0x3b971820	0.00461103
142	0x3b9d3af0	0.0047982857
143	0x3d47d0fe	0.048783295
144	0x3d1752a2	0.03694404
145	0xbd81852d	-0.063242294
146	0xbd812994	-0.063067585
147	0xbce864f4	-0.02836845
148	0xbd68ca5c	-0.05683361
149	0xbb7099b0	-0.0036712699
150	0xbcffaba2	-0.03120977
151	0x3d442e8a	0.047895946
152	0xbd124222	-0.0357076
153	0xbc1d46c8	-0.009599395
154	0x3d690c26	0.05689635
155	0xbd12f748	-0.035880357
156	0xbca7d2dc	-0.020486288
157	0xbd0c19f0	-0.034204423
158	0x3ce51380	0.0279634
159	0xbd3610a8	-0.04444948
160	0xbd4b8841	-0.04969049
161	0xbcc1c6d6	-0.023654383
162	0xbd432bbf	-0.04764914
163	0xbc99dd7c	-0.01878237
164	0x3d1509d8	0.03638634
165	0x3d135854	0.03597291
166	0x3cc39efc	0.02387952
167	0x3d109fa4	0.035308495
168	0xbcea3af2	-0.02859256
169	0xbd388d94	-0.045056894
170	0x3cc09034	0.023506261
171	0x3d496698	0.049170107
172	0x3ca8d27c	0.02060818
173	0x3d358b82	0.0443225
174	0xbbf70588	-0.007538501
175	0xbd7fc4ac	-0.06244342
176	0xbd0f07dc	-0.034919605
177	0xbcda1356	-0.026620548
178	0xbd677ee2	-0.05651749
179	0x3d427aab	0.047480267
180	0x3c6a1560	0.014287323
181	0xbcbdaf20	-0.023154795
182	0x3a1b0c00	0.0005914569
183	0xbca06bfe	-0.019582745
184	0x3d66fff4	0.05639644
185	0xbc48c07e	-0.012252925
186	0xbd76aeb0	-0.06022519
187	0x3cdfcdd0	0.027319819
188	0x3aff229d	0.0019465272
189	0xbd5fcfc3	-0.054641496
190	0x3c8c0515	0.017092267
191	0xbcdcc8b9	-0.02695118
192	0xbd56011f	-0.052247163
193	0xbd429001	-0.047500614
194	0x3d06ef38	0.03294298
195	0x3d0dce37	0.03462049
196	0xbc5e61b3	-0.013573098
197	0xbd137039	-0.035995696
198	0xbcf69920	-0.030102313
199	0x3c0e1e89	0.008674272
200	0x3d13fd1b	0.036130052
201	0x3c3dddc0	0.011588514
202	0xbdae5320	-0.085119486
203	0xbda4d4b3	-0.08048382
204	0x3d2db5b4	0.042409614
205	0x3c8317bb	0.016002527
206	0xbd6028dd	-0.05472647
207	0xbd0aea42	-0.033914812
208	0xbd48ba40	-0.049005747
209	0xbd2919f7	-0.041284528
210	0xbd85a9ca	-0.06526525
211	0xbd994ea5	-0.074857034
212	0xbd671d88	-0.056424648
213	0xbd7aa756	-0.06119474
214	0xbd447774	-0.047965482
215	0x3c1da92d	0.009622854
216	0xbd109017	-0.035293665
217	0xbd6e1fc5	-0.058135767
218	0xbd9656f6	-0.07340805
219	0xb94e78a2	-0.0001969063
220	0xbcefe43e	-0.029283639
221	0xbca7126e	-0.02039453
222	0x3cd0201e	0.02540594
223	0xbb9f5861	-0.0048628305
224	0xbcba7fd0	-0.022766024
225	0xbd909ea0	-0.07061505
226	0xbc9b2393	-0.018937862
227	0xbd6e6e80	-0.05821085
228	0xbb8b1d10	-0.004245408
229	0xbcf9cf29	-0.03049429
230	0x3c8f599c	0.017498784
231	0x3d2b72d1	0.041857544
232	0xbd286518	-0.041112036
233	0x3c3e4604	0.011613373
234	0xbd06f503	-0.032948505
235	0xbc88c175	-0.01669381
236	0xbd166ada	-0.036722995
237	0x3d00bdcc	0.031431004
238	0x3d13a1c9	0.036042962
239	0x3c63dc27	0.013907469
240	0xbd72d40e	-0.059284262
241	0x3ccdff51	0.025146158
242	0x3ca64662	0.020297233
243	0x3ba8b29e	0.005148246
244	0xbd680d2f	-0.056653198
245	0xbcc2fdba	-0.023802627
246	0x3c87cdb5	0.016577581
247	0x3d56e706	0.052466415
248	0xbd7f935a	-0.062396385
249	0xbc3875cb	-0.011258553
250	0xbe07c58c	-0.13258952
251	0x3d087553	0.033315014
252	0xbeeac9dd	-0.45857134
253	0xbeef3071	-0.46716645
254	0x3f1821fb	0.5942685
255	0xbeed1425	-0.46304432

conv2.bias f4 [20]
0	0xbcaba95b	-0.020954778
1	0x3d918bef	0.07106768
2	0x3e8747f5	0.26422086
3	0x3e939f44	0.28832448
4	0x3e7d45fa	0.24733725
5	0xbdbae8f8	-0.091264665
6	0xbddb62fb	-0.107122384
7	0xbe0c3bd0	-0.13694692
8	0x3e2cefe3	0.16888385
9	0x3ed7002b	0.41992316
10	0x3dcbd9cd	0.099536516
11	0xbe366bcd	-0.1781456
12	0x3e0c5221	0.13703205
13	0xbd75ddc4	-0.060025945
14	0x3ea522ca	0.32253104
15	0x3db8337d	0.089941956
16	0x3e7e54a3	0.24836974
17	0x3cd09803	0.02546311
18	0xbd935214	-0.071933895
19	0xbc3952ef	-0.011311277

fc1.weight f4 [50, 500]
0	0x3d199f4f	0.037505444
1	0xbaebffc0	-0.0018005297
2	0xbcb82ae4	-0.02248139
3	0xbcd78af6	-0.026311379
4	0x3c5806df	0.013185232
5	0xbd21fc75	-0.039547402
6	0xbc6fe072	-0.014640914
7	0x3d09618b	0.03354029
8	0xbcb9570b	-0.022624513
9	0xbc7baa86	-0.01536048
10	0x3d15badd	0.03655516
11	0xbce12544	-0.02748359
12	0x3d34b533	0.044118118
13	0xbce06b41	-0.027394893
14	0x3d03371b	0.032034975
15	0xbb5921b0	-0.0033131652
16	0xbb898cd8	-0.004197698
17	0x3cbd6726	0.023120474
18	0xbc6bf706	-0.014402157
19	0x3c9c3cfa	0.019072045
20	0xbcdcea02	-0.026967052
21	0xbd1c31e5	-0.03813352
22	0x3a523b00	0.0008019656
23	0x3abc0d40	0.001434721
24	0x3cf9e07e	0.030502554
25	0xbd95b2d9	-0.07309503
26	0x3e976c2c	0.29574716
27	0x3e713964	0.23557049
28	0x3f06ed58	0.5270591
29	0xbe3486b7	-0.17629515
30	0x3da639db	0.08116504
31	0xbe7a74d8	-0.24458635
32	0xbeac71ee	-0.3368067
33	0x3e6ca613	0.23110227
34	0x3eaf6f26	0.34264487
35	0xbea44d39	-0.32090166
36	0xbf660cb8	-0.8986316
37	0xbff128fa	-1.884063
38	0xbf1c9642	-0.61166775
39	0x3e20e2a9	0.15711464
40	0xbe0ac26c	-0.13550729
41	0x3dfd95bf	0.123820774
42	0x3e0617e8	0.13095057
43	0xbd1e5f35	-0.038665015
44	0xbe79d2db	-0.24396841
45	0x3d867661	0.06565548
46	0x3c9ad889	0.01890208
47	0x3c54e225	0.01299337
48	0xbd679b3b	-0.056544524
49	0x3d823a25	0.063587464
50	0xbdff316d	-0.12460599
51	0xbebbaff4	-0.3665768
52	0xbea4aa9b	-0.32161412
53	0x3c72edf6	0.014827242
54	0xbde2b411	-0.11069501
55	0xbe5bcfbc	-0.21465963
56	0xbee0ceea	-0.43907863
57	0xbe80f494	-0.25186598
58	0xbf2ba1df	-0.6704387
59	0xbeb175da	-0.34660226
60	0xbe55b4ea	-0.20869794
61	0x3e31e986	0.17374238
62	0xbd9f741a	-0.077858165
63	0xbbacd32b	-0.0052741966
64	0x3f22fdba	0.63668406
65	0x3de1be30	0.110226035
66	0x3f268875	0.65051967
67	0x3ecbbefb	0.39794144
68	0x3e61a449	0.22035326
69	0x3e083460	0.1330123
70	0x3b91a877	0.0044451314
71	0xbe3dc9dd	-0.18534036
72	0xbf04f954	-0.51942945
73	0x3cb5e5a0	0.02220422
74	0x3e0a379a	0.13497773
75	0x3df3b778	0.11900228
76	0xbe1f3883	-0.15548901
77	0xbe0733c7	-0.13203345
78	0x3e5eda5a	0.21762982
79	0xbd8578e8	-0.06517202
80	0x3c2f06f2	0.010682808
81	0x3e650d91	0.22368456
82	0xb9a67b86	-0.0003175402
83	0xbe2e3537	-0.17012487
84	0xbeb2a695	-0.34892717
85	0x3e0cc466	0.13746795
86	0x3eb32ac8	0.34993577
87	0x3e93416e	0.28760856
88	0xbedab362	-0.42714983
89	0xbf016f3a	-0.50560343
90	0xbdea6124	-0.11444309
91	0xbe8c4b04	-0.27400982
92	0xbdfa0de5	-0.122096814
93	0xbeb82ede	-0.35973257
94	0x3e031dad	0.12804289
95	0x3eb46c8d	0.35239068
96	0x3dc95c0e	0.09832011
97	0xbcd23358	-0.025659248
98	0x3d530ab2	0.05152387
99	0x3d879b43	0.06621411
100	0xbe8972ce	-0.26845402
101	0xbc49d86b	-0.0123196645
102	0xbe179e2e	-0.14806435
103	0xbd847d53	-0.06469216
104	0xbe0180d2	-0.12646797
105	0xbeeade01	-0.458725
106	0xbf4dc7ae	-0.8038281
107	0xbf0ef0ac	-0.55835986
108	0xbd4760f4	-0.048676446
109	0x3e0bdb61	0.13657905
110	0xbeb65e6b	-0.3561891
111	0xbf9a0f77	-1.203597
112	0xbe9aef91	-0.302609
113	0x3e820236	0.25392312
114	0x3ecb5311	0.39711812
115	0xbe6720d2	-0.22571114
116	0xbd40d559	-0.047078464
117	0x3efd4518	0.49466777
118	0x3ebf39c4	0.3734876
119	0x3df6e200	0.12054825
120	0x3e7d2d74	0.2472437
121	0x3ef655d9	0.48112372
122	0x3eba00a8	0.36328626
123	0x3e2e5259	0.170236
124	0x3e708358	0.23487604
125	0x3ce133e4	0.027490564
126	0xbcc95dc2	-0.02458084
127	0xbc8aa3d3	-0.01692382
128	0xbc6504bb	-0.013978179
129	0xbc9ad1fa	-0.018898953
130	0x3c93b96f	0.018032758
131	0xbd468179	-0.04846332
132	0xbd2426d7	-0.040076103
133	0xbc669e97	-0.014075897
134	0xbd37fffa	-0.044921853
135	0xbcf25f8c	-0.029586576
136	0x3cae1000	0.021247864
137	0xbd17739e	-0.036975496
138	0x3d0d2242	0.0344565
139	0x3c017825	0.00790218
140	0xbc684428	-0.014176406
141	0x3c29f43d	0.010373172
142	0xbd17ac0a	-0.037029304
143	0x3d21de6a	0.03951875
144	0x3d23ade7	0.039960768
145	0xbc38fb3f	-0.0112903705
146	0x3d1abea6	0.037779473
147	0x3d211222	0.039323933
148	0xbd08d836	-0.03340932
149	0x3d1c6ff8	0.03819272
150	0xbd1f592d	-0.038903404
151	0xbcbbe7a0	-0.022937596
152	0x3bf0d570	0.0073496625
153	0x3d2e9357	0.042620983
154	0x3c99e61e	0.018786486
155	0xbc3ecf67	-0.011646128
156	0xbc2bba02	-0.010481359
157	0xbd06d88c	-0.03292136
158	0xbd0d1ac0	-0.03444934
159	0x3c9da116	0.01924185
160	0x3d063157	0.032761898
161	0x3d10b5b7	0.035329547
162	0xbcd090fb	-0.025459757
163	0x3ce912e2	0.028451387
164	0xbbf7a868	-0.0075579174
165	0x3d357601	0.04430199
166	0x3d214053	0.039367985
167	0x3cf95a56	0.030438583
168	0x3d055823	0.032554757
169	0xbcceae64	-0.02522964
170	0x3b6a5410	0.0035755672
171	0xbc05f4f8	-0.008176081
172	0xbcfe9575	-0.031077126
173	0xbc10c770	-0.008836612
174	0x3d1f0057	0.038818683
175	0xbe154976	-0.14578804
176	0x3e1d2f9f	0.15350197
177	0x3e5f33a1	0.21797039
178	0x3e1e9a5e	0.15488574
179	0x3dd82c4e	0.105553254
180	0xbd670775	-0.056403596
181	0xbe5c0f5b	-0.21490233
182	0xbf3318d0	-0.69959736
183	0x3d5707bd	0.052497614
184	0x3dad9336	0.08475344
185	0x3dfec44e	0.12439786
186	0xbe200efb	-0.15630715
187	0x3de13bfa	0.10997768
188	0x3e80f814	0.2518927
189	0x3e93fb62	0.28902727
190	0xbdc1d670	-0.09464729
191	0x3e22d0b7	0.15899931
192	0x3e0d89dd	0.13822122
193	0xbea4590a	-0.3209918
194	0xbe198738	-0.14992988
195	0xbe25036a	-0.16114584
196	0xbeb22293	-0.34792003
197	0x3d21609e	0.039398782
198	0xbd83994a	-0.06425722
199	0x3d80ac0f	0.062828176
200	0x3d0caa05	0.03434183
201	0xbdd44491	-0.103646405
202	0x397f3594	0.00024338654
203	0x3d9f06c0	0.07764959
204	0xbe2bac61	-0.16764976
205	0x3dad9612	0.08475889
206	0x3e3ea55a	0.18617764
207	0x3e48d2bc	0.19611639
208	0x3e20af57	0.15691887
209	0x3e0e3a9a	0.13889542
210	0x3e2240bc	0.15845007
211	0x3df0ca57	0.11757343
212	0xbdc9ab23	-0.09847095
213	0x3d9d8f3c	0.076933354
214	0xbd77832c	-0.06042783
215	0xbea037d9	-0.31292608
216	0xbea77c91	-0.32712224
217	0xbdeb3e7d	-0.11486528
218	0xbe9fe6d9	-0.3123081
219	0x3c7808f8	0.015138857
220	0x3e3c38dc	0.18381065
221	0x3e8a10e5	0.26966015
222	0xbdc75413	-0.09732833
223	0xbf5b95b2	-0.8577529
224	0xbeacc1c4	-0.3374158
225	0x3d9d50f1	0.07681454
226	0x3f405a9b	0.7513825
227	0xbf0bb4e9	-0.5457292
228	0xbed165a8	-0.4089787
229	0xbe9e5198	-0.30921626
230	0xbee2ed35	-0.443216
231	0xbef3086c	-0.47467363
232	0xbe64def1	-0.2235067
233	0xbdccb638	-0.09995693
234	0x3f1b5df4	0.60690236
235	0x3e94e138	0.29078078
236	0x3f833272	1.024977
237	0xbf2d95b1	-0.67806536
238	0xc001e469	-2.029566
239	0xbf2ed98b	-0.68300694
240	0x3e7562e3	0.23963504
241	0xbe502489	-0.20326437
242	0xbed54ce7	-0.41660234
243	0x3e8d1d7a	0.2756155
244	0x3eb4b9bf	0.35297963
245	0x3dc9f293	0.098607205
246	0xbebb0b93	-0.36532268
247	0xbc409ad8	-0.011755668
248	0x3f13b6a4	0.5770056
249	0xbe33d537	-0.17561804
250	0xbd7d3336	-0.061816417
251	0xbd81505c	-0.063141555
252	0x3e25d28e	0.16193601
253	0xbe0aef9f	-0.1356797
254	0xbd27900c	-0.04090886
255	0xbeb7b43e	-0.358797

fc1.bias f4 [50]
0	0x3fa87d77	1.3163289
1	0x3fe883e9	1.8165256
2	0x3fe043db	1.7520708
3	0x3f912d47	1.1341943
4	0x3fbc8c32	1.4730284
5	0x3fe38dcb	1.7777647
6	0x3ffb37d9	1.9626418
7	0x3fdb87e4	1.7150846
8	0x3fbea057	1.4892682
9	0x400feed8	2.2489529
10	0x3feb1a10	1.8367329
11	0x3fe6ab7e	1.8021085
12	0x3f7815c6	0.96908224
13	0x3fd5272e	1.6652582
14	0x4000386b	2.0034435
15	0x3ffed435	1.990851
16	0x3fe5465b	1.7912096
17	0x3f389dce	0.7211579
18	0x3fce5c9a	1.612201
19	0x4008cf09	2.1376364
20	0x3fa8a11e	1.3174169
21	0x40195297	2.395666
22	0x3f9920f4	1.1963181
23	0x3ff5a42d	1.9190727
24	0x400a4c31	2.1609004
25	0x3fd404d4	1.6563973
26	0x3fd3be1c	1.6542392
27	0x4000d48b	2.0129726
28	0x3ff248a1	1.8928415
29	0x3fcbe95e	1.5930593
30	0x3fc94f11	1.5727254
31	0x3fd97ac7	1.6990594
32	0x3ff047dd	1.8771931
33	0x3fd5559f	1.6666754
34	0x3fe0baa5	1.7556959
35	0x3fd79d1e	1.6844823
36	0x401dcdae	2.4656787
37	0x3f92c31f	1.1465796
38	0x3fdb5f14	1.713839
39	0x3f435289	0.76297814
40	0x40005e11	2.0057414
41	0x3f92b862	1.1462519
42	0x3fe745e5	1.8068205
43	0x3fb89ae0	1.4422264
44	0x3fefef10	1.8744831
45	0x400a952b	2.1653545
46	0x3fd12377	1.6338948
47	0x3fb75dce	1.4325502
48	0x40277e08	2.6170673
49	0x40110683	2.2660224

fc2.weight f4 [10, 50]
0	0xbd36d427	-0.044635918
1	0x3e021154	0.12701923
2	0xbda1a15f	-0.07892107
3	0xbd91c9f3	-0.07118597
4	0xbe182719	-0.14858665
5	0xbd7ddcf6	-0.061978303
6	0xbdf4e743	-0.11958172
7	0xbda57f77	-0.080809526
8	0x3d9e8de2	0.07741906
9	0xbe0c3d52	-0.13695267
10	0xbdaf3103	-0.0855427
11	0xbd0fbd4b	-0.035092633
12	0x3dcc8eb0	0.09988153
13	0xbd89f46a	-0.067360714
14	0x3de4cfde	0.1117246
15	0xbd8109a4	-0.06300667
16	0x3dcb6155	0.09930674
17	0xbd1036ec	-0.035208628
18	0xbe01e3fa	-0.12684622
19	0xbd8fadfc	-0.07015607
20	0xbdfa948f	-0.122353666
21	0xbd7b29a2	-0.061319
22	0x3e2370cc	0.15960997
23	0xbcdba259	-0.026810812
24	0xbda0552f	-0.078287475
25	0x3de9799c	0.11400148
26	0xbe62b5aa	-0.22139612
27	0x3d9d0400	0.076667786
28	0x3e0a9c87	0.13536273
29	0xbd18f953	-0.03734715
30	0xbdefdc75	-0.11711971
31	0xbd189aa9	-0.03725687
32	0xbd0d5e6a	-0.03451387
33	0x3dde0f7b	0.108427964
34	0xbca85b9d	-0.020551497
35	0x3de33193	0.1109344
36	0xbd133972	-0.035943456
37	0xbdd753e3	-0.10514047
38	0x3da4d929	0.080492325
39	0x3e18e907	0.14932643
40	0x3de6e3a0	0.11273885
41	0x3dc349b7	0.09535544
42	0x3df466ca	0.11933668
43	0xbdc23bf0	-0.094840884
44	0x3db0da1b	0.0863535
45	0x3dee71ea	0.11642821
46	0xbdadbdf9	-0.084835
47	0xbd0e9c85	-0.034817237
48	0xbdc75b7d	-0.09734247
49	0xbd94f77b	-0.07273766
50	0xb9762c35	-0.00023476857
51	0x3e037a7e	0.12839696
52	0xbda43c90	-0.08019364
53	0xbd96180e	-0.07328807
54	0xbd591053	-0.052994084
55	0xbdcedb07	-0.1010037
56	0x3bce0474	0.006287152
57	0xbd9a285b	-0.075272284
58	0xbd9af763	-0.075667165
59	0x3daf1893	0.08549609
60	0x3db0c211	0.08630765
61	0xbdf2137a	-0.11820121
62	0xbd908bd6	-0.070579216
63	0xbd75d3b5	-0.060016353
64	0x3da0a34d	0.07843647
65	0xbb3b0b38	-0.0028540622
66	0xbdc2a4e2	-0.09504105
67	0xbd0809ff	-0.033212658
68	0xbd36f5e3	-0.04466809
69	0x3df0ad02	0.117517486
70	0x3d1e6300	0.038668633
71	0x3e0175ba	0.12642565
72	0xbc26ec9e	-0.01018825
73	0x3e39184a	0.18075672
74	0xbcf73ad5	-0.03017942
75	0x3e079d66	0.13243636
76	0xbe2943b0	-0.16529727
77	0x3a911e75	0.0011071699
78	0xbc87bf6c	-0.01657077
79	0xbb1c1e9c	-0.0023821956
80	0xbd0b67c5	-0.03403451
81	0x3e02e638	0.12783134
82	0xbd34be06	-0.044126533
83	0x3daff739	0.08592076
84	0xbc893f77	-0.016753895
85	0xbd237f01	-0.039916042
86	0xbcf63ce9	-0.030058341
87	0xbdd62081	-0.104554184
88	0xbd8d2fad	-0.06893859
89	0xbbff2456	-0.007786314
90	0xbcb76988	-0.022389188
91	0x3c25b2dd	0.010113445
92	0x3ce285d5	0.027651707
93	0xbcaf9ebb	-0.021437993
94	0x3d9b3107	0.075777106
95	0x3e098926	0.13431224
96	0xbd8a462a	-0.06751664
97	0xbd87058f	-0.06592857
98	0xbd21b4d8	-0.039479107
99	0x3db4cc6f	0.08828055
100	0x3a522784	0.00080167525
101	0xbd85b5ee	-0.06528841
102	0x3d929c04	0.07158664
103	0x3db4de8d	0.08831511
104	0x3d9d6e6c	0.07687077
105	0x3dddd40e	0.10831462
106	0xbda760e8	-0.0817278
107	0x3d8d05c8	0.06885868
108	0xbda22b82	-0.07918455
109	0x3da5b3e1	0.0809095
110	0x3d9ceb41	0.076620586
111	0xbe283306	-0.16425714
112	0xbdc6bb15	-0.09703652
113	0x3de05864	0.10954359
114	0x3d22aff8	0.039718598
115	0x3dc72b7d	0.097250916
116	0xbda0c9f7	-0.07851022
117	0xbdb02b89	-0.08602054
118	0xbda86bb5	-0.082236685
119	0xbccdfbc5	-0.025144467
120	0xbd1cf576	-0.038320027
121	0x3df92e1c	0.12166998
122	0x3e1d753e	0.15376756
123	0xbd17e6e4	-0.03708543
124	0xbd99cffc	-0.07510373
125	0xbd906c8f	-0.07051956
126	0xbd8f1c44	-0.06987813
127	0x3e0a1015	0.13482697
128	0x3e103714	0.1408351
129	0xbb909238	-0.004411962
130	0x3dc0c395	0.09412304
131	0x3d2793b8	0.04091236
132	0xbd533487	-0.051563766
133	0xbd508785	-0.05091049
134	0x3d864215	0.06555573
135	0xbd5d4817	-0.05402383
136	0x3e11781e	0.14205977
137	0xbd7cc700	-0.06171322
138	0x3d753df8	0.05987355
139	0xbdb89c15	-0.09014145
140	0x3de7368d	0.112897016
141	0x3dd0f076	0.10202114
142	0x3beb3cb9	0.0071788696
143	0x3e1907e7	0.14944421
144	0xbd56df8c	-0.052459285
145	0xbd33fb3c	-0.043940768
146	0x3cc4bb4b	0.02401509
147	0x3e106eb9	0.14104737
148	0xbdd79f72	-0.10528459
149	0xbdc1798d	-0.09447012
150	0x3e04c607	0.12966166
151	0xbca6f86a	-0.020382125
152	0xbd934e98	-0.07192725
153	0x3d9c7f65	0.07641486
154	0xbbf36848	-0.007428203
155	0xbc003929	-0.007826128
156	0xbd9b7a3d	-0.075916745
157	0x3d1113ac	0.03541915
158	0xbd85a57e	-0.06525706
159	0xbd9f9921	-0.07792879
160	0xbcc656f3	-0.024211382
161	0xbdcae5fd	-0.09907148
162	0x3dd44121	0.10363985
163	0x3e033e8b	0.12816827
164	0xbcd60fa1	-0.0261305
165	0x3cd8867a	0.02643131
166	0xbdc19abe	-0.09453343
167	0x3e05a6f7	0.13051973
168	0x3d57edb9	0.052716944
169	0x3e03b6b1	0.1286266
170	0x3d270156	0.04077276
171	0xbd25be52	-0.040464707
172	0xbc091d82	-0.008368852
173	0x3bf01ee0	0.0073278993
174	0xbdd5505a	-0.104157165
175	0xbcf891fc	-0.030343048
176	0xbe7227e1	-0.23648025
177	0xbd214f60	-0.03938234
178	0x3bfaa01a	0.00764848
179	0x3e29a2d3	0.16566019
180	0x3dd25b10	0.10271275
181	0x3e04d99f	0.12973641
182	0xbc98a5d6	-0.018633764
183	0xbd6cf64d	-0.05785208
184	0x3e228071	0.15869309
185	0x3de00b1f	0.10939621
186	0xbcc34507	-0.023836626
187	0x3dce6bd9	0.10079164
188	0xbd6f328e	-0.058397822
189	0x3e17d06a	0.14825597
190	0x3c86da5f	0.01646155
191	0x3db88ef7	0.090116434
192	0xbd5edda1	-0.05441058
193	0xbc385968	-0.011251785
194	0xbd6224a7	-0.055210736
195	0xbce8a030	-0.028396696
196	0x3dd1735d	0.10227082
197	0x3d212cd0	0.039349377
198	0xbd5a8c1e	-0.053356282
199	0xbda6b4d3	-0.08139958
200	0xbd939a22	-0.07207133
201	0xbcdf5578	-0.027262434
202	0xbe14d66c	-0.1453492
203	0xbd60a918	-0.05484876
204	0x3d85679d	0.06513903
205	0xbd8c20f5	-0.068422236
206	0x3dc108b0	0.09425485
207	0x3da186a5	0.078870095
208	0xbcbabde1	-0.02279562
209	0xbc851ab7	-0.01624809
210	0x3bedc59b	0.0072562224
211	0xbd174069	-0.03692666
212	0xbda712e6	-0.081579015
213	0xbd8a5e75	-0.067562975
214	0xbd88787d	-0.06663606
215	0xbdbb90ba	-0.09158464
216	0x3db19c93	0.08672442
217	0xbd288250	-0.0411399
218	0x3d4eb644	0.05046679
219	0xbc762f12	-0.015025871
220	0x3d1258eb	0.03572933
221	0x3c40c9b8	0.0117668435
222	0x3cb7f0bf	0.022453664
223	0x3e2cf894	0.168917
224	0xbcbaba95	-0.022794047
225	0x3bac3111	0.0052548726
226	0xbd8034f4	-0.062601
227	0x3e236d2f	0.15959619
228	0x3ca1de1d	0.019759232
229	0xbbdb31ce	-0.006689287
230	0xbd158f99	-0.0365139
231	0xbd965863	-0.07341077
232	0x3e01fef1	0.12694909
233	0x3dddd4b3	0.10831585
234	0xbd1f60aa	-0.038910545
235	0xbd8d165d	-0.06889031
236	0xbd0fbb04	-0.03509046
237	0xbd1ecb1e	-0.038767926
238	0xbd8afbba	-0.06786294
239	0xbd33876c	-0.04383032
240	0xbd2abda6	-0.04168477
241	0x3baf2684	0.0053451676
242	0x3df3140c	0.11869058
243	0x3e0f32f9	0.13984288
244	0xbc878198	-0.016541287
245	0xbbf2428f	-0.0073931883
246	0x3dead87a	0.11467071
247	0x3c4ca60e	0.012490762
248	0x3dcd28c3	0.1001754
249	0xbd92b60b	-0.07163628
250	0x3e03e471	0.12880112
251	0xbb342b3e	-0.0027491595
252	0x3d967823	0.07347133
253	0xbd36b021	-0.044601563
254	0xbdd84782	-0.10560514
255	0x3da57fff	0.08081054

fc2.bias f4 [10]
0	0xbe5342c4	-0.20630938
1	0x3f03690e	0.51332176
2	0xbefca724	-0.49346268
3	0x3e5ecc23	0.2175756
4	0x3e50c47f	0.20387457
5	0xbd0598da	-0.032616474
6	0xbe2fccb1	-0.17167927
7	0xbefb65ba	-0.4910105
8	0x3e2777fa	0.16354361
9	0xbe705c7d	-0.23472781
